app/src/main/ml/model.tflite (tflite, 453192 bytes, 8 tensors)

sequential/conv2d/BiasAdd/ReadVariableOp f4 [32]
00000000: c619 dd3c b162 593d b848 3fbc d41e 16be
00000010: 4521 2fbc 7f14 a63c 6f58 7e3c dcfe 803c
00000020: f2ba e13c 5014 a8bb feda 08bb 7137 353e
00000030: 05e7 9ebd 6501 26bc d058 483c cb0c ce3d
00000040: faf1 9bbd b9e2 24be 4fe5 81bd 6c67 c33c
00000050: aa4f 5fbc e11c 223c a694 b7be 19df 24bd
00000060: c240 09bd 5aae 3f3d 863c 423c ddaa 853c
00000070: 2c76 823d 9d7c aabc b0a9 273d 4eaa 9ebc
0.026989829 0.053072635 -0.011675052 -0.14660197 -0.010689084 0.020273445 0.015524014 0.015746526
0.027554963 -0.0051293746 -0.0020882483 0.1769693 -0.07758907 -0.010132168 0.012228206 0.10061034
-0.07614513 -0.16102113 -0.06342565 0.023853026 -0.013629833 0.009894581 -0.35855597 -0.040251825
-0.033509023 0.046797134 0.01185525 0.016316826 0.06370196 -0.020811373 0.04093331 -0.019368317

sequential/conv2d_1/BiasAdd/ReadVariableOp f4 [64]
00000000: 2c03 8c3e 2c92 923d 1e42 28bc 499f 1cbd
00000010: 3959 c83e e6d2 13be 5676 e3bd 9042 993d
00000020: 9d65 063e 2fe3 50bc c05e c03c f82a 0abe
00000030: 8be9 333e 2616 793e e3ff e7bd de55 4abd
00000040: a08f 75bc e9ea ad3e 1f85 523e 848d 1e3d
00000050: c607 1bbe d746 c23d aaf8 253e 33c7 823e
00000060: ae09 103e 8e93 eebd 7e0a b8bb b620 433e
00000070: 6fad 52bd 0858 893e 395c 48bd 0b48 26bd
00000080: a390 413e b4ca bbbc 7662 66bd 9849 65bc
00000090: bf14 1abe 967b ce3d 7ef7 a53d 0e09 e4bd
000000a0: 3e75 f7bc 3f6b 8cbc 9022 00bd 9280 a3bd
000000b0: db7b e5bc ad2e 813e 3c73 b43c 8461 143d
000000c0: 779a d83d 1fb5 6ebd cc8f b53d f23c aa3d
000000d0: 80d6 3e3e 6af4 323d f5b8 85bc 9510 653e
000000e0: ebcf 19bd f9d5 01bd 969c f63d b362 31bd
000000f0: 328c ec3d 3dff 12bd 9400 38b7 0b55 1fbd
0.2734617 0.07156786 -0.01026967 -0.038237844 0.3913057 -0.1443592 -0.11106555 0.07483399
0.131247 -0.012749477 0.02348268 -0.13492954 0.17569558 0.24324855 -0.113281034 -0.049398296
-0.014987856 0.33968285 0.20558594 0.03870918 -0.15139684 0.09486168 0.16208139 0.25542602
0.14066193 -0.116492376 -0.005616485 0.19055447 -0.05143493 0.26824975 -0.048916075 -0.04059605
0.18902831 -0.022923805 -0.056246243 -0.013994597 -0.15046977 0.10082166 0.08103846 -0.111345395
-0.030207273 -0.017140983 -0.03128296 -0.07983507 -0.02801316 0.25230923 0.022027604 0.03622581
0.10576337 -0.0582782 0.08865318 0.08312406 0.18636513 0.043690123 -0.016323546 0.22369607
-0.0375518 -0.0316982 0.12041585 -0.043307018 0.11550178 -0.035887945 -1.0967389e-05 -0.038899463

sequential/conv2d/Conv2D f4 [32, 3, 3, 3]
00000000: 89e3 be3d 4bf5 fc39 6253 493e 856e 003e
00000010: 7025 9cbd 66a9 df3d 16f8 973c 4357 9dbe
00000020: 935a fbbd a78b 1b3e e04a a9bd 2bc9 633e
00000030: 9713 103e 6cbd febd 09c6 58bd 8efc 44bd
00000040: ca93 46be 7ce0 a7bd 7dd3 a03d 2588 bfbd
00000050: 80cb 303e a14c 943d 6c0d 9abc f3ba 3d3d
00000060: 497d 983d e600 06be 5bc2 5dbe d934 033b
00000070: 9e61 a73c 2bf9 94bc 50a6 59be 57c0 1dbe
00000080: 4318 ed3b 9546 3abe f832 b4bd 738f d1bd
00000090: 2ae5 ac3d 9acc 8e3e 6cc2 e6bc ade4 143d
000000a0: 5bea 6b3e b13a 8d3d da70 ae3d c013 ef3d
000000b0: 2e72 853d f974 37be 2bae bf3d f52a 6ebe
000000c0: 454c 613c 009c 363e 87d8 22bd 73fe fabd
000000d0: 97bc 113e a637 14be beee 4dbe 8c39 e9bc
000000e0: a97f 0c3e 7f08 84bb ca64 6c3b b174 4a3e
000000f0: 94b1 15be ea47 e03c 1c40 bb3d 5276 c9bd
00000100: 5bfd e7bd c01f 573d f898 f2bd db14 27be
00000110: a3cc 0f3d ea18 2b3d cada 5d3d 3f45 053e
00000120: 9d42 963d b449 84bd f184 3a3e 4774 cbbd
00000130: bbc8 0bbe a9b1 21bd a002 503d 10a0 d4bd
00000140: 0194 9dbd 71b8 d8bd 7da8 1cbd 458b 133e
00000150: 96fa 07be 6266 dbbd 58a5 4f3e 5a50 693d
00000160: f146 e3bc 400b 143e fe7b 70bd 8ff1 0bbe
00000170: 588d b63d 2107 2abd 1da6 ccbd 3658 333e
00000180: ea35 0ebc 6226 ce3d 9661 dd3d efd5 aaba
00000190: 9de0 24be ad11 253e 6fd5 26be 9432 43bb
000001a0: d141 2d3e 4a3c 50bc 3cc7 1f3d b34d 803d
000001b0: 4bf3 793d 9c68 11be eb12 0ebe 37f2 353d
000001c0: 79bc 273d 6462 1d3e 5f8e 443e e5af 4abc
000001d0: 2963 8c3d 7002 0dbe 8724 88be 717f 01be
000001e0: 924f 163e 5d82 4ebd ebc0 873d 101a 653e
000001f0: bb23 463e 58cd 063e c2f9 88be d7d5 12be
00000200: be3a 60be 770b 13be 3411 43be 4b4a b43d
00000210: 802d 0f3e 9edd 663e 1d0d 3b3c 50fa 2bbe
00000220: c910 72be 7e60 17be a4a5 c8bb 96c3 ccbd
00000230: 83b7 12be 74a6 2dbe 5182 dfbd 8f1b a9bd
00000240: 8ef5 123e cf2d 383e 2583 c83c 00a5 0e3d
00000250: 29e9 3c3e 625a 2f3d f960 533d 6645 5f3d
00000260: 3e52 4e3e 5ed2 f8bc a717 35bd 139c 363e
00000270: 9746 3ebe d49f eb3c 6329 d63d b3b3 09be
00000280: 2409 a5bd 885f 033e 779a e33d f59a be3d
00000290: a4e5 d23c f015 443e b0b9 703e 4bca 883e
000002a0: 73f7 e2bd cfcb 2bbc 5198 22be 4938 6f3e
000002b0: 18a6 693e 8606 af3e 5f7c 93b9 2d64 1dbe
000002c0: 6bd2 0fbe 9f6e 97be 32da 89be 2270 52be
000002d0: 0285 96bd f8b3 513c 034f b73d c76d 69bd
000002e0: 0cd5 94be dfa1 81be d2bd 92bd 4881 e73d
000002f0: f000 343c eba9 1f3d 3cfd 2cbe 041a b8bc
00000300: b39a 9bbc de2e 4bbe 854d ea3d c622 ccbd
00000310: 66fa 173d 1261 4d3c 8071 0a3e 2af8 f23c
00000320: b42c 0e3e 9a4d ef3d 7a0c 93bd 79a1 663e
00000330: 0305 853e 892f 07be 00e2 be3d 6f51 18bd
00000340: 622b 23be fbc4 3d3b 9612 1c3e 5db3 95be
00000350: d660 d7bd 68f8 a03d fe52 77be 1759 59bd
00000360: 8c61 45be 3999 fbbc 3063 733d 2316 0abe
00000370: 59df 3ebd 0e62 3bbe 0456 b7bd 69ff e23c
00000380: 578c 2fbe 66af a3bb 578e c33d ad58 6f3e
00000390: afcc 42bc 1a64 ee3d d411 4b3e 8344 b03c
000003a0: ac03 b8bd 4adc a83c 0775 04be 60a4 c9bd
000003b0: 7aa7 083e 8a92 39be 6361 113d 430b 1e3d
000003c0: f191 c43d 06cb 813c 33d0 f23d 98a4 133e
000003d0: de8a 813d bb91 9ebc fffb 013e 9642 093e
000003e0: 0312 8e3b 7ccc e4bd 5ce5 86bd 41dc 043e
000003f0: 24da c6bd 6b56 c8bd c254 77be 1166 f5bd
0.09320743 0.00048247943 0.19660714 0.1254216 -0.07624328 0.10920982 0.018550914 -0.30730638
-0.12273135 0.15189992 -0.082662344 0.22244708 0.14069973 -0.12438473 -0.052923236 -0.048092417
-0.19392315 -0.08197114 0.07852838 -0.093521394 0.17265129 0.07241178 -0.018805228 0.046320867
0.07445771 -0.1308628 -0.21656172 0.0020020513 0.02043229 -0.018185219 -0.2125485 -0.15405403
0.0072355582 -0.18190987 -0.08798784 -0.10232439 0.08442147 0.27890474 -0.02816888 0.036350895
0.23038618 0.0689596 0.085176185 0.11673689 0.06515919 -0.17915715 0.09359392 -0.23258574
0.013751094 0.17832947 -0.039757278 -0.122555636 0.14232098 -0.14474353 -0.20110604 -0.028469823
0.13720573 -0.004029333 0.0036070817 0.19771077 -0.14618522 0.027378041 0.09143087 -0.09837021
-0.113276206 0.052520514 -0.11845583 -0.1631655 0.035107266 0.041771807 0.05416373 0.13014697
0.07336924 -0.0645937 0.18214776 -0.099342875 -0.13650791 -0.03947607 0.050783753 -0.10382092
-0.07694245 -0.105820544 -0.03824662 0.14408596 -0.13279185 -0.10712887 0.20277917 0.056961395
-0.027743788 0.14457417 -0.058712 -0.13666366 0.08913678 -0.041510705 -0.09992621 0.17514119
-0.008679846 0.10065915 0.10809629 -0.0013033728 -0.16101308 0.16120024 -0.16292356 -0.0029784786
0.16919638 -0.0127096865 0.039008364 0.0626482 0.061023038 -0.14200062 -0.13874404 0.044420447
0.040951226 0.15369564 0.19194935 -0.012371038 0.06854851 -0.13770461 -0.26590368 -0.12646271
0.14678791 -0.050417293 0.06628593 0.22373223 0.19349568 0.1316427 -0.2675305 -0.14339386
-0.21897408 -0.14359842 -0.19049531 0.08803233 0.139822 0.22545478 0.011416701 -0.16794705
-0.23639216 -0.14782903 -0.0061232615 -0.099982426 -0.14327817 -0.16958028 -0.10913528 -0.082572095
0.14351484 0.17986225 0.024476597 0.034825325 0.18448319 0.042810805 0.051606152 0.054509543
0.2014856 -0.030373748 -0.04421201 0.17832975 -0.18581615 0.028762735 0.10457113 -0.13447456
-0.08058384 0.12829411 0.11113446 0.093068995 0.025744267 0.19148993 0.23508334 0.26716837
-0.110823534 -0.0104856035 -0.15878417 0.23361315 0.22817266 0.34184664 -0.0002813069 -0.15370245
-0.14045112 -0.29576585 -0.26924282 -0.20550588 -0.07349588 0.012799256 0.08950617 -0.056989457
-0.29068792 -0.2531881 -0.071651116 0.11303955 0.010986552 0.038980406 -0.16893476 -0.022473343
-0.018994665 -0.19842097 0.11440567 -0.0996757 0.037104033 0.01253535 0.1351986 0.02965935
0.1388424 0.11684723 -0.07180114 0.22522534 0.25980386 -0.13201727 0.0932045 -0.037187036
-0.15934518 0.002895652 0.15241465 -0.29238406 -0.10516517 0.0785988 -0.24152753 -0.05306348
-0.19275492 -0.03071271 0.059420764 -0.13485007 -0.04659972 -0.18299124 -0.08951953 0.02770968
-0.17143379 -0.0049952744 0.095486335 0.23373671 -0.011889621 0.116401866 0.1983102 0.021517044
-0.08985075 0.020612855 -0.12935267 -0.09845805 0.13345137 -0.18122306 0.035493266 0.03858496
0.095981486 0.01584388 0.11856117 0.14418256 0.06325315 -0.0193566 0.12693785 0.13404307
0.0043356433 -0.11171815 -0.065867156 0.12974645 -0.09709576 -0.09782108 -0.24153426 -0.11982358

sequential/conv2d_1/Conv2D f4 [64, 4, 4, 32]
00000000: ca4f adbd 8916 43bd 7562 49bd 405f 8bbc
00000010: d0d7 a9bd 99b9 67bc 5234 2b3d a177 64be
00000020: ccea e4bc 55e3 233e 7787 86bd c7cb 2bbe
00000030: 5c9c 96bd a6be 43bd bd4f ddbd dbf6 65bd
00000040: 191d 24bd c9d4 52be 1c07 6f3d d209 a83d
00000050: 4cb0 13bd f544 6fbd 3c9e 01be c87e 96bd
00000060: f848 843d 48db 4c3c b4ad 04bd b322 843c
00000070: cae8 843d ac70 57bd 9bbb 27bd 435d e2bd
00000080: 0976 3bbe eeb4 79bd e2f7 9ebc 1fe5 62bd
00000090: aa2e cbbd 9cf3 583c 4ca2 82bd 93a6 86bd
000000a0: 3290 fa3c 617e 6f3d e75e 43be 01ac e3bd
000000b0: e5f9 6cbe c8b1 4cbe c3d4 35be af76 8ebb
000000c0: db83 87bd 6eb2 67be 9ace f4bd d356 9bbb
000000d0: 7189 76bd 36c4 8cbd 751b 94bd fb43 14bc
000000e0: 99ab 213d 2882 17bd 1db4 4ebd a901 883d
000000f0: c521 3cbc dc28 21be 41bb 86bd 38fa fbbd
00000100: 7711 41be b990 053d ec34 c43a 764a 14bd
00000110: 3e95 e8bc 544f 04be 40ed 60bd 36ea 2abe
00000120: 78e5 be3c 4c59 55bc dc0d 06be 6022 38be
00000130: 00f6 4cbe 0c78 edbd 47b9 36be 49db c63c
00000140: c173 90bc bc07 9cbe 6c15 31be b0d9 3c39
00000150: 4e9e 92bc 6da3 c43b e33b cfbc 6b98 b13d
00000160: f0f0 11bb 696a de3b 8846 e4bd 369a b3bb
00000170: 7a65 513d 53aa e2bd 020e fbbd 5e47 86bd
00000180: 9e49 d9bd 7a26 2cbe bafc 87bd e238 68bc
00000190: f15e e5bb bab2 c7bd 7f1c f43c 3795 03bd
000001a0: ce46 4ebd 1f15 283d 8a9d 153c 15ba 81be
000001b0: 7043 82bd 1aff 9abd a6ae 1abe 831f fa3d
000001c0: c82a a8bd 640b a7be 4428 54bd 90c9 10bd
000001d0: 56d6 3dbe 9410 603d 04bc 2cbb cc2b 61bc
000001e0: af34 c5bc 9e34 ed3c 1c3d 40bd 55cf 07bc
000001f0: f6ad 1f3d c085 42be 5d84 aabd cbed 4ebd
00000200: 6773 38be c543 d43d 4c8f 993c 01bd b1bd
00000210: 7314 833c 9cbb 0a3d 1111 c63d e049 933d
00000220: 9db5 943c dda2 9e3d 093b 1f3e 4f47 93bd
00000230: e148 aebd 02e2 a13d df74 10bd 5205 383d
00000240: 1aab a9bc 30a0 a0bd 9d04 00be 1a10 f33c
00000250: ab8f aa3d 4405 96ba 726d ccbd 2a84 20bd
00000260: 9baf 1abe 1cac ad3d 6e52 eabd 6f23 1e3d
00000270: e9a0 af3d 4e54 adbd 1d4e 033e d6e2 1ebe
00000280: a8a9 38be fcaf 403e f730 7d3b 4caf bb3b
00000290: d9d9 12bd 7097 f73c 834a cabd 19f2 973d
000002a0: 8448 823d 00ed d63d cc1b 0ebd 92ba 7bbe
000002b0: 5d27 4cbd 22d6 84be 4068 c0bd 2110 d23d
000002c0: 8373 673c 7091 adbc 88ef df3c cc5c a4bc
000002d0: a583 43bd ad95 3bbd 3638 debd d08c c7bd
000002e0: 4534 87bd 968b d83c 5f03 cd3d bce2 3fbd
000002f0: 3a79 8e3b eb80 603b de3e 133d 0601 3fbd
00000300: e9f1 03be 90ec 113e f28f 47bd e788 bfbb
00000310: 9bf0 1abe dc4a 143d 4c27 0d3e f4e9 18be
00000320: 5eea 423d 2f55 15bd 9e4b 85bd 68bc 5cbe
00000330: e634 b1bd e46f 8cbe 59b8 b4bd abe4 103d
00000340: 4d53 1dbd 6a7b 70be 657e 8abd 19a3 07bd
00000350: e32c 08bc a2ac ec3d 76d8 d1bc 6828 ecbd
00000360: 38ce 3cbd f5dd 573d a65f 71bd d42b 373d
00000370: d2ac 343d 15d6 80bd 1efe df3d fd01 a9bc
00000380: 09e2 253d 4db3 fa3d 57e6 febc 07b2 273c
00000390: 96f6 3bbe cb57 823d 3227 513d fd77 fdbd
000003a0: f1bf f53d 725f 933d 2968 16bc ccc9 39be
000003b0: e394 0c3c 023f 42bd 9cee 4cbe 4bfb c63d
000003c0: 7115 9abd 4e72 50be 924a 24be 23be d3bd
000003d0: fddd 10bc 3094 9dbd a075 8dbd 9416 09bc
000003e0: c553 c7bd 4dca 023e d68d 0dbb d737 6dbd
000003f0: 3fb7 063e 326e afbd db1e d2bc 2a84 c03d
-0.08462484 -0.047628913 -0.04916616 -0.017013192 -0.08293116 -0.014143371 0.041797943 -0.2231126
-0.027943991 0.16004689 -0.065688066 -0.16776954 -0.07354042 -0.04778924 -0.108062245 -0.056143623
-0.040066812 -0.20588984 0.05835639 0.08204998 -0.0360568 -0.058415372 -0.12658018 -0.073484
0.0645923 0.012503453 -0.03239222 0.016129827 0.064897135 -0.052597687 -0.0409504 -0.110529445
-0.18306746 -0.060963564 -0.01940531 -0.05539429 -0.0992101 0.013241675 -0.06378612 -0.0657474
0.030586336 0.058470134 -0.19079171 -0.111167915 -0.23142202 -0.19989693 -0.17756943 -0.0043476443
-0.06616946 -0.2262666 -0.119534686 -0.004740575 -0.060189668 -0.06873362 -0.072317995 -0.009049411
0.03947029 -0.03698936 -0.05046474 0.06640942 -0.011482661 -0.15738243 -0.065786846 -0.12303585
-0.18854319 0.03260872 0.0014969385 -0.036203824 -0.028391477 -0.12920886 -0.05491376 -0.16690907
0.023302779 -0.013021778 -0.13091224 -0.17981863 -0.20015717 -0.11595163 -0.17844115 0.024274485
-0.01763332 -0.3047465 -0.17293328 0.00018010172 -0.017897751 0.006000927 -0.02529711 0.086716495
-0.0022268854 0.0067875874 -0.11146265 -0.00548103 0.051122166 -0.11067643 -0.12258531 -0.06556581
-0.106097445 -0.16811553 -0.06640001 -0.014173718 -0.0069998433 -0.09750886 0.029798744 -0.032124724
-0.050360493 0.041035768 0.0091317985 -0.25337282 -0.06360519 -0.07568188 -0.15105686 0.12213042
-0.08211285 -0.32625878 -0.051796213 -0.035348475 -0.18538794 0.05470331 -0.0026357183 -0.013743352
-0.024072973 0.028955754 -0.04693328 -0.008289178 0.03898426 -0.18996334 -0.083260275 -0.050519746
-0.18012773 0.103644885 0.018745087 -0.08678628 0.016000962 0.033870324 0.09671224 0.07191825
0.018153006 0.077459075 0.15549864 -0.071913354 -0.08509994 0.07904436 -0.035267707 0.04492695
-0.02071147 -0.07843053 -0.1250176 0.029670764 0.08328184 -0.0011445661 -0.099818125 -0.03918854
-0.1510605 0.08480093 -0.114415035 0.03860801 0.08575613 -0.084633455 0.12822767 -0.15516219
-0.18033469 0.18817133 0.0038633922 0.005727684 -0.035852287 0.030223578 -0.09877493 0.07419223
0.063614875 0.10494423 -0.034694478 -0.2458289 -0.049842227 -0.2594462 -0.09394884 0.102569826
0.014126661 -0.021187514 0.027335897 -0.02006378 -0.047732968 -0.04579704 -0.10850565 -0.09743655
-0.066017665 0.026433747 0.100104086 -0.04684709 0.0043479474 0.0034256529 0.035948627 -0.046631835
-0.1288525 0.14250398 -0.04872126 -0.0058451775 -0.15130846 0.036204204 0.13784522 -0.14932996
0.04758679 -0.03645819 -0.065085635 -0.21556246 -0.08652668 -0.27429116 -0.08824224 0.035374325
-0.03840952 -0.23484579 -0.06762389 -0.033114526 -0.008311483 0.115563646 -0.025615912 -0.115311444
-0.046095103 0.05270191 -0.058929108 0.044719532 0.044110127 -0.06290833 0.10937141 -0.02063083
0.040498767 0.1224123 -0.031115694 0.010235316 -0.18355784 0.063644014 0.05106277 -0.123764016
0.119995005 0.07195939 -0.009180107 -0.18143386 0.008580419 -0.04742337 -0.20012897 0.09715899
-0.07523621 -0.20356104 -0.16044071 -0.10339 -0.008841989 -0.0769428 -0.06907201 -0.008367199
-0.09732775 0.12772484 -0.0021599433 -0.05791458 0.1315584 -0.0856594 -0.025649479 0.09400208

sequential/dense/BiasAdd/ReadVariableOp f4 [34]
00000000: d4b1 c4bb 663f 0a3e 74b5 18bc c1de 8abc
00000010: bc56 90bb 314a 70bc 7f6a 133d 6042 0fbd
00000020: 7763 cbbb a0e5 abbc f806 cabb f1c7 53bc
00000030: fdbe d7bc a1be 9dbc 7789 19bd 6b14 71be
00000040: 1471 683d aa52 503d 6887 03bd 76e8 2dbc
00000050: 198f 41be 1faa 8fbd 5a8f 73bc c5b0 37bc
00000060: 8853 82bc 2f04 073e 9102 99bc 0355 a1bc
00000070: 1166 dcbc a3b1 74bc a70c 99bc 9a4b 893b
00000080: 2f09 e43e 8693 fabc
-0.006002644 0.13500747 -0.009320606 -0.01695192 -0.004404871 -0.014666126 0.035990234 -0.03497541
-0.0062069255 -0.020983517 -0.0061653815 -0.012926088 -0.026336187 -0.019255938 -0.037484612 -0.23542945
0.056748465 0.050860085 -0.032111555 -0.010614505 -0.18902244 -0.0701487 -0.014865721 -0.011211579
-0.015908971 0.1318519 -0.018677982 -0.019693857 -0.026904138 -0.01493493 -0.01868279 0.0041899206
0.44538257 -0.030587923

sequential/dense_1/BiasAdd/ReadVariableOp f4 [10]
00000000: 2438 97be 1b8e 21be 2794 9e3c b8b1 203e
00000010: 5bdb f23e bf43 aabe fb58 df3d a2c9 bebe
00000020: dceb b63e 2754 26bc
-0.2953502 -0.15776865 0.019357754 0.15692794 0.4743298 -0.3325481 0.109056436 -0.3726321
0.3572682 -0.010151899

sequential/dense/MatMul f4 [34, 2304]
00000000: f65d e63c 00af 9ebc 499e 84bb 960a ec3c
00000010: a80d 373d d2ba 32bd 9304 373d 750f 36bd
00000020: 143b c93c 8114 22bd 23a6 a5bb 62b7 003d
00000030: 0088 4bbd 8907 6e3b 614c 55bd 84c4 52bc
00000040: 53bb 7ebb f4d5 db3c a968 e33c 4855 aa3c
00000050: 8057 daba d69a dabb 4c32 ae3b 899a 2abd
00000060: 803f 1bbb 4ccd a0bc daa0 813c a0f2 2dbd
00000070: a5c3 8abb a0ae 273d 9a8f b1bc c705 2bbd
00000080: 2d5d 8dbc 8c46 f6bc 9e8f 90bc 0d73 4bbc
00000090: 9a26 5cba 7aeb c23c cadc 16bd 48a7 31ba
000000a0: 4b90 a33b fcc8 043d f2fd 50bd 822d 18bd
000000b0: d620 40bd 8820 cfbc e2b8 acbc 8418 60bc
000000c0: 18e3 96bb 3cfe 273c 3237 a53c 68e7 1f3d
000000d0: 4999 173d 19b2 a1bc 822a 60bc dfe9 a43c
000000e0: 2493 903c 55fb 09bd 3a35 22bd 31e9 27bd
000000f0: fcc1 df3c b3d2 dcbb aafc c8bc 847a 203d
00000100: ef49 4cbd 3ec7 f3bc f577 473c 73b2 fbbc
00000110: d13b a4bc eb91 fbbb 40a5 963c be3c 63bd
00000120: 9b8c c53c a1bc c5bc 9acb 5dbc 38dd 463c
00000130: c6f1 8abc 8f3e eb3c adaf 363d a97d c8bb
00000140: 8cad 96bc bc58 1e3c f012 41bd 500f bcbc
00000150: 794f d4bc 8f8c 1c3d 3a09 fd3c 3a4d 29bd
00000160: 44ec 063c 1068 e23b cafe 223d 4256 bfbc
00000170: dc45 2abd 4173 5cbd c9b4 c8bc b09c 683c
00000180: 4400 7b3a b999 02bd 544d 173d c48d 883b
00000190: 1739 2e3c e961 bdbb 1c9f ebbc e7cb f0bc
000001a0: 70ce 6ebb 00aa 2d3a 60d9 393b 6467 973c
000001b0: f58a e4bc 6a92 3e3b 6dcd 3cbd 0396 b9bc
000001c0: 0218 74bc 60e3 d1ba 2811 03bb 3a22 c9bc
000001d0: f69a 3cbd abf9 d3bb bc74 193c 3553 b03b
000001e0: abb3 38bd e1d3 aebc f188 41bd a4b0 d7bc
000001f0: bc2b 18bd 298f fabc e8d9 333d 40f4 b23c
00000200: f095 37bd e652 a83c 7ed8 8bbc 9918 93bb
00000210: 5742 6dbb 9f9f 163d f9a4 63bd 7180 e9bc
00000220: b7bf 9cbb d64c 0cbc d0f7 98bc 7084 503b
00000230: fa7d 1fbd c50c 86bc bcf0 42bd fc37 34bd
00000240: 15a4 f23c ad00 4f3c cd5d a0bc 13ea 023c
00000250: ef35 17bc 794e 33bd fe05 603c 935e dbbb
00000260: dc1a 03bc 7a9f 273d 837d 93bc eb9b 38bd
00000270: 596b 4bbd 3fb8 ad3b 1e46 073d 248a 95bc
00000280: afe3 4ebc 7b0b b739 10b3 8c3c 3606 ac3c
00000290: 6a38 adbc 3d96 f43c 4a91 bb3c 8681 0dbd
000002a0: 4c46 e8bc 2c81 373c e07f 2ebd 48e9 423d
000002b0: 9ee9 30bd 8089 cebc 2447 6dbc 323a 2a3d
000002c0: 5f17 113b 34ae 04bc 5a0f 16bc 0c16 2dbc
000002d0: a03e 323d 11f1 0b3d 8501 b3bc 7ca4 e13c
000002e0: 461e 1d3d 9868 533c 5883 1e3d 954d 5ebd
000002f0: 641e 08bc a00b 0d3d 421f 93bc 4133 55bd
00000300: be3a ae3c 2ade 54bd a903 803c b09e e63c
00000310: c914 7cbc 6a85 74bc e4a8 873c 1434 1c3b
00000320: 401b 46ba b196 273d 4abd f4bb 3fbb 1a3d
00000330: f2d4 333d 76d0 89bc baef 9fbc 192f dfbc
00000340: e6bc cbbc aec2 e83c 2dee 0ebd bc4d 57bd
00000350: 809d 8abc 8641 3c3b 8299 4abc 29fd 183d
00000360: 802d 62ba 1ce2 7abc 31e5 0d3d a827 a9bc
00000370: 7733 33bd b5a9 14bc d249 27bd 8cd4 143c
00000380: 9420 2dbc 69bb c23c 9a1f 86bc 2168 28bd
00000390: 3404 333d 2940 64bd 03ef e0bc 5f73 f83c
000003a0: 14dd 903b 243f db3c 65dc 3bbd 687e cb3c
000003b0: ee29 173d 2882 953c dc6e b73b 540e 1d3c
000003c0: e9d1 3fbd 14e6 67bc a149 f93c a384 29bc
000003d0: 4307 46bd 66a9 a5bc 4ba9 06bd c414 0fbd
000003e0: 7de9 acbc 0c12 efbc 7eae 1f3d 8e31 dfbb
000003f0: 5609 353d 90a4 f1bb 38de 733b 2ffa 6bbc
0.028120976 -0.019370556 -0.0040471894 0.028813642 0.044690758 -0.043635197 0.044682097 -0.044448335
0.024564303 -0.039570335 -0.0050552054 0.031424887 -0.049690247 0.003632041 -0.052074794 -0.012864236
-0.0038868978 0.02683542 0.027759867 0.020792618 -0.0016658157 -0.00667129 0.0053160544 -0.041651282
-0.0023688972 -0.019629143 0.01582377 -0.042467713 -0.0042347484 0.04093802 -0.02167492 -0.041753557
-0.017256344 -0.030062936 -0.017646607 -0.012417567 -0.0008398086 0.023793925 -0.036831655 -0.0006776941
0.0049915663 0.032418236 -0.05102343 -0.037152775 -0.046906315 -0.025284067 -0.021084253 -0.01367772
-0.0046047084 0.010253485 0.02016792 0.039039046 0.03701142 -0.019738244 -0.01368201 0.02013105
0.017648287 -0.033686955 -0.039601542 -0.040993873 0.027314179 -0.0067389845 -0.024534542 0.03917934
-0.049875196 -0.029758092 0.012174596 -0.03072474 -0.020048054 -0.007677307 0.018389344 -0.05547785
0.024114897 -0.024137797 -0.013537312 0.012137704 -0.01696099 0.028716354 0.04460113 -0.0061184955
-0.0183933 0.009664711 -0.0471372 -0.02295652 -0.025916802 0.038219985 0.030888189 -0.041333415
0.008235041 0.006909378 0.039793767 -0.02335656 -0.04157053 -0.053820852 -0.024500268 0.014197513
0.000957493 -0.031884883 0.03693898 0.0041672904 0.0106337285 -0.005779494 -0.028762393 -0.029394103
-0.0036438964 0.0006624758 0.0028358325 0.018481918 -0.027898291 0.0029078969 -0.046094347 -0.022654539
-0.014898302 -0.0016013198 -0.001999924 -0.024552453 -0.04604622 -0.0064689717 0.009366211 0.005381013
-0.04509322 -0.021341266 -0.047249738 -0.026329346 -0.037151083 -0.030585842 0.043908983 0.021844983
-0.044820726 0.020547342 -0.017071005 -0.0044890163 -0.0036202872 0.03677332 -0.055577252 -0.028503628
-0.0047835964 -0.008563241 -0.018672854 0.003181722 -0.0389385 -0.01636351 -0.047592863 -0.043998703
0.029619256 0.012634438 -0.019575978 0.007990378 -0.009229167 -0.04377601 0.013673304 -0.0066946237
-0.008002009 0.040923573 -0.018004185 -0.04507057 -0.04966292 0.005301505 0.033025853 -0.018254347
-0.012627526 0.00034913034 0.017175227 0.020999055 -0.021145064 0.029856795 0.022896428 -0.03454735
-0.028353833 0.011200231 -0.04260242 0.047585756 -0.043191545 -0.02521205 -0.014482293 0.041559406
0.0022139174 -0.008098174 -0.009158934 -0.010564338 0.043516755 0.034165446 -0.02185131 0.027544253
0.03835895 0.012903355 0.038699478 -0.054273207 -0.008308027 0.034434915 -0.01795924 -0.052050833
0.021268245 -0.051969685 0.015626745 0.02815184 -0.015385815 -0.0149243865 0.016560026 0.0023834752
-0.0007557161 0.040915195 -0.007468854 0.037776228 0.043904252 -0.016823035 -0.01952349 -0.027244138
-0.024870347 0.028413143 -0.03489511 -0.052564368 -0.016920805 0.0028725578 -0.012365701 0.037350807
-0.0008627996 -0.015312698 0.034642402 -0.020648792 -0.043750253 -0.009073664 -0.040841885 0.009083878
-0.010566849 0.023771005 -0.01637249 -0.04111493 0.04370518 -0.05572525 -0.02745772 0.03032845
0.004420886 0.026763506 -0.04586448 0.024840549 0.03690522 0.01825054 0.0055979323 0.009585936
-0.046831045 -0.014153976 0.030430617 -0.010346564 -0.04834677 -0.020222377 -0.032876294 -0.034931913
-0.02110743 -0.02918341 0.038984768 -0.0068113273 0.044198357 -0.0073743537 0.003721131 -0.01440291

sequential/dense_1/MatMul f4 [10, 34]
00000000: ac5c 32be 195b 3d3e d318 8e3e d1ed 81be
00000010: 7517 48be f53d 993e 083d a63d 6789 863e
00000020: 32a3 423e 46dd 9cbd 7883 c63d 93e5 a1be
00000030: e77d 313d 08d9 22be 3dd0 b0be fcd1 a53e
00000040: fcea c1be 4ba6 7b3e 2fe2 5b3e d5bd 133e
00000050: 6f53 adbd 626e 9cbe a9b0 58be 85ec 2fbe
00000060: 9cda 233e b1a6 3b3e 4126 a23e 76ce f9bd
00000070: 5d81 8abe 3218 ba3e e49a b53c 3058 75be
00000080: c2dc 5cbe ea69 45bd 457b b03e c655 fe3e
00000090: 67ba 773d 1e60 8fbd a536 4fbe 5b5e 783e
000000a0: 709e b7be 12b3 0dbe a828 853e ea16 72be
000000b0: 6004 b93d 6e11 cf3d 4fbc 1f3e aacd 293e
000000c0: 0ac4 1c3e 660b 413e 5ca4 ed3d 0f38 b3be
000000d0: d61e 27be 90d8 3dbe ce48 aa3e f336 84be
000000e0: 88a1 89be 91c8 833d d6ca 9c3e 2db8 04bf
000000f0: 10fe a13e c3ba 5d3e 9fa3 a0be a92a 93be
00000100: 6056 853e 1399 d13c 6155 1ebf 1ac0 3d3c
00000110: f7a4 1c3e b45d a6be 9822 013e be15 80be
00000120: 3142 553e 3c2b 3fbe 7a7d ef3e dbc2 653e
00000130: d6cb d8bd f156 f93c 2147 f43d c86c e53d
00000140: b47d 84be 67ae 653e c292 e8bd b4d6 dbbe
00000150: eb1e 053d d86c f5bd fc7c 59be 6680 e1bc
00000160: 0228 1f3e 2098 70be 0077 803e d9d0 c1bd
00000170: f0e1 803e b8fd 6a3e 204f 833e bb09 b4bd
00000180: 211a 11be 81f3 a9be a96d b03e fbb3 613e
00000190: bfd6 8cbd b0a8 923e 828c 73be 672c 23be
000001a0: 4c9d b5be be91 77be 2c98 2e3e d791 ea3b
000001b0: 62e5 83ba 1355 adbd 1cdb bb3e 234e 80be
000001c0: 4a95 b23e d945 843e 6f32 663e c444 8abe
000001d0: 3ec1 7ebe aefe 65be 36e0 aa3e bc55 093e
000001e0: 7d26 6ebe 1419 2cbe d118 edbe 166f 683e
000001f0: 6f74 e1bd ea8b a93e 1a38 68bc 6bb1 0ebe
00000200: 8807 2bbe 3a8b 56bc ed38 613e 6de9 4a3e
00000210: c05e 8f3e 0822 e4ba bb56 6e3d 73ef 8d3e
00000220: a8bd b23c 5fc6 8e3d b0e0 a9be e82d 80be
00000230: 5b73 bebd 17e3 193d 84ce cdbc fae4 603e
00000240: 2ec3 ebbd aae2 1fbd 5bcc 753e 72bc 873e
00000250: 4a81 9dbe cc52 73be 1f54 adbe e047 86be
00000260: dede b7be 98ee c0be 9b12 90be a950 a6be
00000270: edfc 19bd 4813 1d3e eb40 b3be 5621 05be
00000280: 57aa 813d ce8f ae3d 2168 f8bd 9601 a5be
00000290: 9e44 efbd 007d 163e c5e2 dcbd fc34 a03c
000002a0: d6e3 153f f604 a23e cee0 8fbe 90c1 c8be
000002b0: 021f 9cbd 76d1 d23d a27a fe3c 7a7e aa3e
000002c0: 3198 a2be 0358 1cbe 8ab6 bf3d acbf 87be
000002d0: a86a a0be e86a 91be 1bfe b6bc d52e 8e3d
000002e0: a12c bb3e d8e3 b4be 58f6 6b3d 911c d33d
000002f0: ae9e 88bd 65e6 a5be 4c6f c73c 47ae e33e
00000300: 9d77 043e 69d4 a93e 6fb6 cf3d a58e 8a3e
00000310: d095 193c 8202 7d3d 42ef 69be d8fc 613e
00000320: 18c7 483c 5379 c4bd 8362 14be 7c84 19be
00000330: 810b 44be 7869 023d 57c3 40be 1ad0 a73e
00000340: d8ce 203e 1ff2 6abe 9e23 70be da5b 61be
00000350: 4f90 93be cc35 83bd 26cd 86be ca4f 983e
00000360: f0ae 65be e13b 65be fb98 393e bbaa 9fbe
00000370: f60e dd3e d34f 06bd adec debd 3987 2d3e
00000380: 9874 dd3d 474d e0be 3756 86bd 746e 72ba
00000390: 5f6a bebe 3246 253e 40ec a33e 9552 253e
000003a0: 4fc2 453e 14b1 a0be f7e4 903e c62d 4e3e
000003b0: b2d9 ab3e c69a 36bd bea4 0ebd debd d4be
000003c0: b9a9 7b3e 0bc3 833e 1ade b0be ca4c 84be
000003d0: d7aa 5c3e df06 77bd 34c2 853d 02af b8be
000003e0: 858f f3bc 90b6 9fbe 7f91 4d3e ac82 f93c
000003f0: 7169 823d cbe4 973d ee79 4fbe 8afa 363e
-0.17418164 0.18491782 0.27753314 -0.25376752 -0.19540198 0.29930082 0.081171095 0.26276705
0.19007567 -0.07659392 0.096930444 -0.31620464 0.04333296 -0.15903103 -0.34533873 0.32386768
-0.3787459 0.24575154 0.21473001 0.14427884 -0.08463179 -0.30552965 -0.2116114 -0.17180069
0.16001362 0.18325306 0.3166981 -0.121975824 -0.2705182 0.36346585 0.022168584 -0.23959422
-0.21568587 -0.04819671 0.34469047 0.49674815 0.0604805 -0.07000755 -0.20235689 0.24254744
-0.35863066 -0.13837841 0.2600758 -0.23641554 0.090340376 0.10110746 0.15599178 0.16582361
0.15309158 0.18852004 0.11603615 -0.35003707 -0.16320357 -0.18539643 0.3325867 -0.25823173
-0.2688105 0.064347394 0.30623502 -0.5184353 0.31639147 0.21653275 -0.31374833 -0.28743485
0.2604246 0.025585687 -0.6184903 0.011581445 0.15297304 -0.32493365 0.12610853 -0.25016588
0.20826031 -0.18668836 0.4677542 0.22437613 -0.105857536 0.030436965 0.11927629 0.11202389
-0.25877154 0.2242981 -0.11356117 -0.42937243 0.03250019 -0.11983651 -0.21239084 -0.027527045
0.15542606 -0.23495531 0.2509079 -0.09463663 0.25172377 0.22948349 0.25646305 -0.087909184
-0.14170124 -0.3319359 0.34458664 0.22041313 -0.06876897 0.28644323 -0.23784068 -0.15934907
-0.3547157 -0.2417669 0.17050236 0.0071584987 -0.0010062868 -0.08463492 0.36690605 -0.25059614
0.34879524 0.2583454 0.22480176 -0.2700559 -0.24878404 -0.22460434 0.33374184 0.13411611
-0.2325687 -0.16806442 -0.46307996 0.22698626 -0.11008536 0.33114558 -0.014173532 -0.13934867
-0.16702092 -0.013094718 0.21994372 0.19815607 0.28001976 -0.0017405162 0.05818818 0.27721748
0.02181895 0.0697143 -0.33179235 -0.25035024 -0.09299346 0.037570085 -0.025122888 0.21962348
-0.11511837 -0.039034523 0.24003737 0.2651096 -0.30762702 -0.23762053 -0.33853242 -0.2622671
-0.35912222 -0.37682033 -0.28139195 -0.32483414 -0.037594724 0.15339386 -0.35010466 -0.13000998
0.06331318 0.08523522 -0.12129236 -0.32227772 -0.116830096 0.14696121 -0.1078544 0.019556515
0.58550775 0.3164441 -0.281012 -0.39210176 -0.07623102 0.10293858 0.031064335 0.3329962
-0.31756738 -0.15267949 0.093609884 -0.26513422 -0.31331372 -0.28401875 -0.022337964 0.06942526
0.36557487 -0.3533008 0.05760798 0.10308183 -0.06670891 -0.3240234 0.024345063 0.444689
0.12936254 0.3316987 0.10142218 0.27061954 0.009374097 0.06176997 -0.22845176 0.22069108
0.012254499 -0.09593453 -0.14490704 -0.14991945 -0.19145013 0.031838864 -0.18824516 0.32775956
0.15703905 -0.22943924 -0.23451087 -0.22007695 -0.28821036 -0.06406745 -0.2632839 0.29748374
-0.22430015 -0.22386123 0.18124764 -0.31184945 0.43175477 -0.03279097 -0.10884986 0.16946115
0.10813254 -0.43808958 -0.06559413 -0.0009248026 -0.3719053 0.16140059 0.32016182 0.16144784
0.19312404 -0.313851 0.28299686 0.20134649 0.33564526 -0.044581197 -0.03482508 -0.41551107
0.24576463 0.25734743 -0.3454445 -0.25839835 0.21549545 -0.060309287 0.06531182 -0.3607102
-0.029731521 -0.31193972 0.20075034 0.030457817 0.063677676 0.07416686 -0.20261356 0.1786901
